…
                                     windows: False
                                     world_size: 1
INFO - 10/24/24 22:56:49 - 0:00:00 - The experiment will be stored in ./experiments/debug/12744315
                                     
INFO - 10/24/24 22:56:49 - 0:00:00 - Running command: python train.py

WARNING - 10/24/24 22:56:49 - 0:00:00 - Signal handler installed.
INFO - 10/24/24 22:56:49 - 0:00:00 - vocabulary: 10220 float words, 10273 equation words
INFO - 10/24/24 22:56:49 - 0:00:00 - Training tasks: functions
DEBUG - 10/24/24 22:56:49 - 0:00:00 - LinearPointEmbedder(
                                        (embeddings): Embedding(10220, 64, padding_idx=9)
                                        (hidden_layers): ModuleList(
                                          (0): Linear(in_features=576, out_features=576, bias=True)
                                        )
                                        (fc): Linear(in_features=576, out_features=128, bias=True)
                                      ): LinearPointEmbedder(
                                        (embeddings): Embedding(10220, 64, padding_idx=9)
                                        (hidden_layers): ModuleList(
                                          (0): Linear(in_features=576, out_features=576, bias=True)
                                        )
                                        (fc): Linear(in_features=576, out_features=128, bias=True)
                                      )
DEBUG - 10/24/24 22:56:49 - 0:00:00 - TransformerModel(
                                        (layer_norm_emb): LayerNorm((128,), eps=1e-12, elementwise_affine=True)
                                        (attentions): ModuleList(
                                          (0-3): 4 x MultiHeadAttention(
                                            (q_lin): Linear(in_features=128, out_features=128, bias=True)
                                            (k_lin): Linear(in_features=128, out_features=128, bias=True)
                                            (v_lin): Linear(in_features=128, out_features=128, bias=True)
                                            (out_lin): Linear(in_features=128, out_features=128, bias=True)
                                          )
                                        )
                                        (layer_norm1): ModuleList(
                                          (0-3): 4 x LayerNorm((128,), eps=1e-12, elementwise_affine=True)
                                        )
                                        (ffns): ModuleList(
                                          (0-3): 4 x TransformerFFN(
                                            (midlin): ModuleList()
                                            (lin1): Linear(in_features=128, out_features=512, bias=True)
                                            (lin2): Linear(in_features=512, out_features=128, bias=True)
                                          )
                                        )
                                        (layer_norm2): ModuleList(
                                          (0-3): 4 x LayerNorm((128,), eps=1e-12, elementwise_affine=True)
                                        )
                                      ): TransformerModel(
                                        (layer_norm_emb): LayerNorm((128,), eps=1e-12, elementwise_affine=True)
                                        (attentions): ModuleList(
                                          (0-3): 4 x MultiHeadAttention(
                                            (q_lin): Linear(in_features=128, out_features=128, bias=True)
                                            (k_lin): Linear(in_features=128, out_features=128, bias=True)
                                            (v_lin): Linear(in_features=128, out_features=128, bias=True)
                                            (out_lin): Linear(in_features=128, out_features=128, bias=True)
                                          )
                                        )
                                        (layer_norm1): ModuleList(
                                          (0-3): 4 x LayerNorm((128,), eps=1e-12, elementwise_affine=True)
                                        )
                                        (ffns): ModuleList(
                                          (0-3): 4 x TransformerFFN(
                                            (midlin): ModuleList()
                                            (lin1): Linear(in_features=128, out_features=512, bias=True)
                                            (lin2): Linear(in_features=512, out_features=128, bias=True)
                                          )
                                        )
                                        (layer_norm2): ModuleList(
                                          (0-3): 4 x LayerNorm((128,), eps=1e-12, elementwise_affine=True)
                                        )
                                      )
DEBUG - 10/24/24 22:56:49 - 0:00:00 - TransformerModel(
                                        (position_embeddings): Embedding(4096, 128)
                                        (embeddings): Embedding(10289, 128, padding_idx=78)
                                        (layer_norm_emb): LayerNorm((128,), eps=1e-12, elementwise_affine=True)
                                        (attentions): ModuleList(
                                          (0-11): 12 x MultiHeadAttention(
                                            (q_lin): Linear(in_features=128, out_features=128, bias=True)
                                            (k_lin): Linear(in_features=128, out_features=128, bias=True)
                                            (v_lin): Linear(in_features=128, out_features=128, bias=True)
                                            (out_lin): Linear(in_features=128, out_features=128, bias=True)
                                          )
                                        )
                                        (layer_norm1): ModuleList(
                                          (0-11): 12 x LayerNorm((128,), eps=1e-12, elementwise_affine=True)
                                        )
                                        (ffns): ModuleList(
                                          (0-11): 12 x TransformerFFN(
                                            (midlin): ModuleList()
                                            (lin1): Linear(in_features=128, out_features=512, bias=True)
                                            (lin2): Linear(in_features=512, out_features=128, bias=True)
                                          )
                                        )
                                        (layer_norm2): ModuleList(
                                          (0-11): 12 x LayerNorm((128,), eps=1e-12, elementwise_affine=True)
                                        )
                                        (layer_norm15): ModuleList(
                                          (0-11): 12 x LayerNorm((128,), eps=1e-12, elementwise_affine=True)
                                        )
                                        (encoder_attn): ModuleList(
                                          (0-11): 12 x MultiHeadAttention(
                                            (q_lin): Linear(in_features=128, out_features=128, bias=True)
                                            (k_lin): Linear(in_features=128, out_features=128, bias=True)
                                            (v_lin): Linear(in_features=128, out_features=128, bias=True)
                                            (out_lin): Linear(in_features=128, out_features=128, bias=True)
                                          )
                                        )
                                        (proj): Linear(in_features=128, out_features=10289, bias=True)
                                      ): TransformerModel(
                                        (position_embeddings): Embedding(4096, 128)
                                        (embeddings): Embedding(10289, 128, padding_idx=78)
                                        (layer_norm_emb): LayerNorm((128,), eps=1e-12, elementwise_affine=True)
                                        (attentions): ModuleList(
                                          (0-11): 12 x MultiHeadAttention(
                                            (q_lin): Linear(in_features=128, out_features=128, bias=True)
                                            (k_lin): Linear(in_features=128, out_features=128, bias=True)
                                            (v_lin): Linear(in_features=128, out_features=128, bias=True)
                                            (out_lin): Linear(in_features=128, out_features=128, bias=True)
                                          )
                                        )
                                        (layer_norm1): ModuleList(
                                          (0-11): 12 x LayerNorm((128,), eps=1e-12, elementwise_affine=True)
                                        )
                                        (ffns): ModuleList(
                                          (0-11): 12 x TransformerFFN(
                                            (midlin): ModuleList()
                                            (lin1): Linear(in_features=128, out_features=512, bias=True)
                                            (lin2): Linear(in_features=512, out_features=128, bias=True)
                                          )
                                        )
                                        (layer_norm2): ModuleList(
                                          (0-11): 12 x LayerNorm((128,), eps=1e-12, elementwise_affine=True)
                                        )
                                        (layer_norm15): ModuleList(
                                          (0-11): 12 x LayerNorm((128,), eps=1e-12, elementwise_affine=True)
                                        )
                                        (encoder_attn): ModuleList(
                                          (0-11): 12 x MultiHeadAttention(
                                            (q_lin): Linear(in_features=128, out_features=128, bias=True)
                                            (k_lin): Linear(in_features=128, out_features=128, bias=True)
                                            (v_lin): Linear(in_features=128, out_features=128, bias=True)
                                            (out_lin): Linear(in_features=128, out_features=128, bias=True)
                                          )
                                        )
                                        (proj): Linear(in_features=128, out_features=10289, bias=True)
                                      )
INFO - 10/24/24 22:56:49 - 0:00:00 - Number of parameters (embedder): 1060288
INFO - 10/24/24 22:56:49 - 0:00:00 - Number of parameters (encoder): 793344
INFO - 10/24/24 22:56:49 - 0:00:00 - Number of parameters (decoder): 5026737
INFO - 10/24/24 22:56:50 - 0:00:00 - Found 388 parameters in model.
INFO - 10/24/24 22:56:51 - 0:00:01 - Optimizer: <class 'odeformer.optim.AdamCosineWithWarmup'>
…
